…
Namespace(algo='ppo', batch_size=256, checkpoint_dir=None, clip_eps=0.2, discount=0.96, dumb_ac=False, entropy_coef=0.01, env='Adversarial-v0', epochs=4, eval=False, eval_env=None, eval_episodes=5, eval_procs=1, frames=2490368, frames_per_proc=1024, freeze_ltl=False, gae_lambda=0.95, gnn='RGCN_8x32_ROOT_SHARED', ignoreLTL=False, int_reward=0.0, log_interval=1, lr=0.0003, ltl_sampler='Adversarial', ltl_samplers_eval=None, max_grad_norm=0.5, model=None, noLTL=False, optim_alpha=0.99, optim_eps=1e-08, pretrained_gnn=False, procs=16, progression_mode='full', recurrence=1, save_interval=50, seed=1, use_dfa=False, use_mean_guard_embed=False, value_loss_coef=0.5)

Device: cpu

Environments loaded

Training status loaded.

Observations preprocessor loaded.

Model loaded.

ACModel(
  (env_model): MinigridEnvModel(
    (image_conv): Sequential(
      (0): Conv2d(3, 16, kernel_size=(2, 2), stride=(1, 1))
      (1): ReLU()
      (2): MaxPool2d(kernel_size=(2, 2), stride=(2, 2), padding=0, dilation=1, ceil_mode=False)
      (3): Conv2d(16, 32, kernel_size=(2, 2), stride=(1, 1))
      (4): ReLU()
      (5): Conv2d(32, 64, kernel_size=(2, 2), stride=(1, 1))
      (6): ReLU()
    )
  )
  (gnn): RGCNRootShared(
    (linear_in): Linear(in_features=22, out_features=32, bias=True)
    (conv): RelGraphConv(
      (dropout): Dropout(p=0.0, inplace=False)
    )
    (g_embed): Linear(in_features=32, out_features=32, bias=True)
  )
  (actor): PolicyNetwork(
    (enc_): Sequential(
      (0): Sequential(
        (0): Linear(in_features=96, out_features=64, bias=True)
        (1): ReLU()
      )
      (1): Sequential(
        (0): Linear(in_features=64, out_features=64, bias=True)
        (1): ReLU()
      )
      (2): Sequential(
        (0): Linear(in_features=64, out_features=64, bias=True)
        (1): ReLU()
      )
    )
    (discrete_): Sequential(
      (0): Linear(in_features=64, out_features=7, bias=True)
    )
  )
  (critic): Sequential(
    (0): Linear(in_features=96, out_features=64, bias=True)
    (1): Tanh()
    (2): Linear(in_features=64, out_features=64, bias=True)
    (3): Tanh()
    (4): Linear(in_features=64, out_features=1, bias=True)
  )
)

Optimizer loaded.

train_agent.py --algo ppo --env Adversarial-v0 --ltl-sampler Adversarial --frames-per-proc 1024 --discount 0.96 --log-interval 1 --save-interval 50 --frames 2490368 --seed 1

Namespace(algo='ppo', batch_size=256, checkpoint_dir=None, clip_eps=0.2, discount=0.96, dumb_ac=False, entropy_coef=0.01, env='Adversarial-v0', epochs=4, ev
…
