…
Namespace(algo='ppo', batch_size=256, checkpoint_dir=None, clip_eps=0.2, discount=0.94, dumb_ac=False, entropy_coef=0.01, env='Letter-7x7-v3', epochs=4, eval=False, eval_env=None, eval_episodes=5, eval_procs=1, frames=2010000, frames_per_proc=None, freeze_ltl=False, gae_lambda=0.95, gnn='RGCN_8x32_ROOT_SHARED', ignoreLTL=False, int_reward=0.0, log_interval=5, lr=0.0003, ltl_sampler='Eventually_1_5_1_4', ltl_samplers_eval=None, max_grad_norm=0.5, model=None, noLTL=False, optim_alpha=0.99, optim_eps=1e-08, pretrained_gnn=False, procs=16, progression_mode='full', recurrence=1, save_interval=20, seed=6, use_dfa=True, use_mean_guard_embed=False, value_loss_coef=0.5)

Device: cuda

Using fixed maps.
Environments loaded

Training status loaded.

Observations preprocessor loaded.

Model loaded.

ACModel(
  (env_model): LetterEnvModel(
    (image_conv): Sequential(
      (0): Conv2d(13, 16, kernel_size=(2, 2), stride=(1, 1))
      (1): ReLU()
      (2): Conv2d(16, 32, kernel_size=(2, 2), stride=(1, 1))
      (3): ReLU()
      (4): Conv2d(32, 64, kernel_size=(2, 2), stride=(1, 1))
      (5): ReLU()
    )
  )
  (gnn): RGCNRootShared(
    (linear_in): Linear(in_features=22, out_features=32, bias=True)
    (conv): RelGraphConv(
      (dropout): Dropout(p=0.0, inplace=False)
    )
    (g_embed): Linear(in_features=32, out_features=32, bias=True)
  )
  (actor): PolicyNetwork(
    (enc_): Sequential(
      (0): Sequential(
        (0): Linear(in_features=1056, out_features=64, bias=True)
        (1): ReLU()
      )
      (1): Sequential(
        (0): Linear(in_features=64, out_features=64, bias=True)
        (1): ReLU()
      )
      (2): Sequential(
        (0): Linear(in_features=64, out_features=64, bias=True)
        (1): ReLU()
      )
    )
    (discrete_): Sequential(
      (0): Linear(in_features=64, out_features=4, bias=True)
    )
  )
  (critic): Sequential(
    (0): Linear(in_features=1056, out_features=64, bias=True)
    (1): Tanh()
    (2): Linear(in_features=64, out_features=64, bias=True)
    (3): Tanh()
    (4): Linear(in_features=64, out_features=1, bias=True)
  )
)

Optimizer loaded.

U 5 | F 010240 | FPS 0300 | D 43 | rR:μσmM 0.54 0.50 0.00 1.00 | ARPS: 0.049 | ADR: 0.145 | F:μσmM 52.4 26.5 1.0 76.0 | H 1.384 | V 0.144 | pL 0.009 | vL 0.023 | ∇ 0.104
U 10 | F 020480 | FPS 0368 | D 72 | rR:μσmM 0.53 0.50 0.00 1.00 | ARPS: 0.059 | ADR: 0.161 | F:μσmM 52.3 27.3 1.0 76.0 | H 1.356 | V 0.145 | pL 0.044 | vL 0.019 | ∇ 0.102
…
